02 Training a FFN/feedforwardnet.pth (torch, 815945 bytes, 4 tensors)

dense_layers.0.weight f4 [256, 784]
0	0xbc04712a	-0.008083621
1	0xbb57e2d0	-0.0032941587
2	0xbcd9b23a	-0.026574243
3	0x3c1d67c8	0.009607263
4	0x3d015e79	0.031584237
5	0x3cd8ff4c	0.026488923
6	0xbd0175ac	-0.03160636
7	0xbba71380	-0.00509876
8	0x3c9f87be	0.019473907
9	0x3c54f868	0.012998678
10	0xbc8797d5	-0.016551891
11	0x3c34cfe4	0.011035893
12	0x3cb0a452	0.021562729
13	0x3c9ca3d3	0.019121086
14	0xbd11ce46	-0.03559711
15	0xbcc606ba	-0.02417313
16	0x3c8a348c	0.01687076
17	0xbcfe45d1	-0.03103915
18	0x3c86fa5a	0.016476799
19	0x3ce07faa	0.027404625
20	0x3b3a5e00	0.0028437376
21	0xbd0be752	-0.03415615
22	0xbabe4d40	-0.0014518872
23	0xbcc8aafe	-0.024495598
24	0xbaed4420	-0.0018101968
25	0xbc02678e	-0.00795926
26	0x3c3877e4	0.011259053
27	0xbc344b6e	-0.011004312
28	0x3cf8c462	0.03036708
29	0x3cb641aa	0.022248108
30	0xbcdae863	-0.026722139
31	0xbcecb7d3	-0.028896248
32	0xbce5ba50	-0.028042942
33	0xbbfb6db1	-0.0076729883
34	0xbd4028e0	-0.04691398
35	0xbd9e665a	-0.07734366
36	0x3c08c19e	0.008346943
37	0xbc834502	-0.016024116
38	0xbc6be58f	-0.014397993
39	0xbd045046	-0.032303117
40	0xbdcb1b65	-0.099173345
41	0xbd72acb3	-0.05924673
42	0xbda2842d	-0.07935367
43	0xbe204a35	-0.15653308
44	0xbdd2fdcd	-0.10302315
45	0x3d896f90	0.06710732
46	0x3e0f073b	0.13967602
47	0x3de732b3	0.11288967
48	0x3d9e2632	0.07722129
49	0xbca9a0db	-0.020706585
50	0xbda4843b	-0.080330335
51	0xbcbc25a9	-0.022967177
52	0x3cb64806	0.02225114
53	0x3ca9df06	0.020736229
54	0x3c66c824	0.014085803
55	0xbcd2b4b0	-0.025720924
56	0x3ce6597e	0.028118845
57	0xbcba3b4e	-0.022733357
58	0xbca651d8	-0.020302698
59	0xbdc14fee	-0.094390735
60	0xbd98ca2a	-0.07460435
61	0xbca7fa6a	-0.020505149
62	0xbd4f11f4	-0.05055423
63	0xbd77ad9e	-0.06046831
64	0x3d92f481	0.07175542
65	0x3d8bcdfa	0.06826396
66	0x3d3d0865	0.046150584
67	0x3e35ab51	0.17741133
68	0x3db816be	0.08988713
69	0x3d3f62ef	0.04672521
70	0x3d504b69	0.050853167
71	0x3dc2a6c4	0.09504464
72	0x3c3fdfe6	0.011711096
73	0x3d3c0174	0.045899823
74	0x3c8907c1	0.01672733
75	0x3cc8609e	0.024460133
76	0x3cce2669	0.0251648
77	0x3d82b4ee	0.06382166
78	0x3d670719	0.056403253
79	0xbd68a1e8	-0.05679503
80	0xbcbfbdd9	-0.023405956
81	0xbd5fa372	-0.054599233
82	0xbccce730	-0.025012583
83	0x39f32980	0.00046379492
84	0x3bc66000	0.0060539246
85	0x3c1429b4	0.009043146
86	0xbe236229	-0.15955414
87	0xbd9616a4	-0.07328537
88	0x3bd1b024	0.0063991714
89	0x3dffd80c	0.124923795
90	0x3db23bd7	0.0870282
91	0x3e2089d1	0.15677573
92	0x3c8d0600	0.017214775
93	0x3d6a1c7d	0.057156075
94	0x3da78575	0.08179752
95	0x3da3eaab	0.08003744
96	0x3d0d7eb2	0.034544654
97	0xbd1b3f27	-0.037902024
98	0xbd84af2c	-0.06478724
99	0xbce781cb	-0.028260132
100	0xbc82d89c	-0.015972428
101	0xbc5653c9	-0.013081499
102	0x3ceb16d8	0.028697416
103	0x3c9ec329	0.019380169
104	0xbcbf23b9	-0.023332464
105	0x3d262ec8	0.040571958
106	0x3dd17b46	0.10228591
107	0x3dfff2d5	0.124974884
108	0x3d9f3aa9	0.077748604
109	0xbe062e0e	-0.13103506
110	0x3dd27dea	0.102779225
111	0xbc9d49aa	-0.019200165
112	0x3d01fb79	0.031733964
113	0x3c9a3b45	0.01882709
114	0xbe077d98	-0.13231504
115	0xbd907ec4	-0.070554286
116	0x3e307d03	0.17235188
117	0x3e82b001	0.25524905
118	0x3e00badb	0.1257128
119	0x3e2e3695	0.17013009
120	0x3e12ce53	0.14336519
121	0x3d20a250	0.039217293
122	0xbc13b94c	-0.009016346
123	0xbd52ff8c	-0.05151324
124	0x3d6071d4	0.054796055
125	0x3d04bf05	0.032408733
126	0xbc0b2cd1	-0.008494572
127	0xbdfeb89d	-0.12437556
128	0xbd269318	-0.040667623
129	0x3c8304fd	0.01599359
130	0x3d0d1367	0.03444233
131	0x3d16c66a	0.036810316
132	0x3d9f4114	0.077760845
133	0x3de330d6	0.11093299
134	0x3d518a31	0.05115718
135	0x3d404c07	0.046947505
136	0xbd20e7d8	-0.039283603
137	0xbdae7955	-0.08519236
138	0xbd8e7463	-0.06955793
139	0xbd3fa1e9	-0.04678527
140	0xbd02c50c	-0.0319262
141	0xbb8b3030	-0.0042476878
142	0xbcfb5d7c	-0.030684225
143	0x3e32809d	0.17431875
144	0x3e9b2feb	0.30309996
145	0x3e456fc7	0.19280921
146	0x3e11e0dd	0.14245935
147	0x3e014456	0.12623724
148	0xbc924872	-0.01785681
149	0xbd4a771c	-0.049429998
150	0xbdb80d49	-0.08986909
151	0xbdba9b3b	-0.09111639
152	0x3d1962a2	0.03744758
153	0xbd05dab4	-0.032679275
154	0xbcb10422	-0.021608416
155	0xbd32a7da	-0.043617107
156	0x3d27ce43	0.04096819
157	0x3d756145	0.059907217
158	0x3d2e5fb6	0.042571746
159	0x3df1c3db	0.118049346
160	0x3e1c8d6a	0.1528832
161	0x3dd5a9fe	0.10432814
162	0x3d902cef	0.070398204
163	0x3deab6db	0.11460658
164	0x3d6ccd49	0.057812963
165	0x3d33a073	0.04385419
166	0x3d1e07db	0.03858171
167	0x3e2513fe	0.16120908
168	0x3cf43ac2	0.029813174
169	0x3d942f9a	0.07235642
170	0xbd41295a	-0.047158577
171	0xbda39fe0	-0.07989478
172	0x3e3ac4d1	0.18239142
173	0x3e0d45fd	0.1379623
174	0x3d9cf976	0.076647684
175	0x3d507542	0.050893076
176	0xbd06faa3	-0.03295387
177	0xbd20a15a	-0.039216377
178	0xbe013b72	-0.12620333
179	0xbd87ef15	-0.06637398
180	0xbbf30399	-0.0074162004
181	0xbdbf43a8	-0.09339076
182	0x3a5d72d4	0.00084475917
183	0xbd4874c0	-0.048939466
184	0xbdd98303	-0.106206916
185	0xbdc0d5b8	-0.094157636
186	0xbd98700b	-0.074432455
187	0x3c2b0241	0.010437549
188	0x3bc91942	0.006137044
189	0x3d7d56fe	0.06185054
190	0x3d59a2a6	0.05313363
191	0x3e0915bd	0.13387199
192	0xbd26fa30	-0.04076594
193	0x3c27524c	0.010212492
194	0x3d15e123	0.03659166
195	0x3d86cd3d	0.06582115
196	0xbcea28a4	-0.028583832
197	0x3c473244	0.01215798
198	0xbd5f1a0e	-0.054468207
199	0xbdca662f	-0.09882771
200	0x3e5ac3e6	0.21363792
201	0x3df8fe6b	0.121579014
202	0x3c0b0103	0.008484128
203	0xbcc2ba9d	-0.023770625
204	0xbcf9e893	-0.030506408
205	0xbd576fe1	-0.05259693
206	0xbd49f723	-0.049307954
207	0x3cf4cd35	0.029883007
208	0xbdc4d45b	-0.09610816
209	0xbd84a24a	-0.06476267
210	0xbae8a184	-0.0017748331
211	0xbd0928fe	-0.03348636
212	0xbde3aa9f	-0.11116528
213	0xbe032ce4	-0.12810093
214	0xbd32f08b	-0.04368643
215	0xbb367773	-0.0027842193
216	0x3b9f01ef	0.0048525254
217	0x3c6d00de	0.014465539
218	0x3d3cc9a4	0.046090737
219	0xbd27d857	-0.040977802
220	0xbcce8d95	-0.025213996
221	0x3d6d868d	0.057989646
222	0x3e088448	0.13331711
223	0xbb9debfa	-0.0048193904
224	0xbd057186	-0.032578968
225	0xbd8b8a8c	-0.06813535
226	0x3d8c82a5	0.06860856
227	0x3d5d3287	0.054003265
228	0x3e02e58b	0.12782876
229	0x3d789cb7	0.06069633
230	0xbd92fe19	-0.071773715
231	0xbd55af36	-0.052169047
232	0xbdb27536	-0.087137625
233	0x3b853153	0.004064718
234	0xbd472c50	-0.048626244
235	0xbd87089f	-0.06593441
236	0xbcf22fd9	-0.029563831
237	0x3c9960b3	0.018722868
238	0xbd53ca55	-0.05170663
239	0xbdb0718c	-0.08615407
240	0xbd9c4a57	-0.07631367
241	0xbe10c628	-0.1413809
242	0xbd1b629b	-0.037935834
243	0x3d5efc4d	0.05443983
244	0x3cb461cc	0.02201929
245	0x3c0515d0	0.008122876
246	0xbd77c5b2	-0.06049127
247	0xbdf10cc8	-0.11770016
248	0xbdd94bdc	-0.10610172
249	0x3d9ec0f9	0.0775165
250	0x3da623dd	0.08112309
251	0xbddd5b87	-0.10808473
252	0xbd3331e8	-0.043748766
253	0xbdcc7b04	-0.09984401
254	0x3d3d1768	0.0461649
255	0xbc315f65	-0.0108259665

dense_layers.0.bias f4 [256]
0	0x3bd20223	0.006408946
1	0x3d32340a	0.04350666
2	0xbd96e869	-0.073685475
3	0xbb9700ce	-0.00460825
4	0x3db0963a	0.086224034
5	0x3e1db5c7	0.15401374
6	0x3b76d3ab	0.0037662785
7	0xbd50e861	-0.051002864
8	0x3dd42552	0.10358681
9	0x3d3ec2c2	0.046572454
10	0xbdc84a44	-0.0977979
11	0xbd94faa4	-0.072743684
12	0xbd1962e8	-0.03744784
13	0x3d645213	0.055742335
14	0xbc4e2b9d	-0.01258364
15	0xbcedd3d5	-0.029031673
16	0x3d013372	0.031543203
17	0x3d075463	0.03303946
18	0x3cdfeaf2	0.02733371
19	0xbc375366	-0.011189317
20	0xbd6798b4	-0.056542113
21	0xbdb9b78f	-0.09068214
22	0x3d612511	0.05496699
23	0xbd9e95ac	-0.077433914
24	0x3d48a965	0.048989672
25	0x3a5bca6e	0.00083843514
26	0xbd7720b2	-0.060333915
27	0xbc18ece6	-0.009333825
28	0x3e05b7ad	0.13058348
29	0x3ce6cb97	0.028173251
30	0x3ce62a59	0.028096365
31	0x3cfb6dff	0.030692099
32	0x3e3ba115	0.18323167
33	0xbd862f4f	-0.06551992
34	0x3d70f9a1	0.058831815
35	0x3bab7ced	0.005233398
36	0x3d90fb01	0.07079125
37	0xbd274a9b	-0.040842634
38	0x3ddab459	0.1067893
39	0xbdadb227	-0.084812455
40	0xbda2e774	-0.079543024
41	0xbcaadd38	-0.020857438
42	0x3c9556fe	0.018229958
43	0xbd5f6000	-0.054534912
44	0xbd8b892a	-0.06813271
45	0xbdd4535d	-0.10367463
46	0xbd628f4e	-0.055312447
47	0xbc4cca6e	-0.012499435
48	0x3e029dfd	0.1275558
49	0xbcf0466f	-0.02933046
50	0xbd14c762	-0.03632296
51	0x39ead614	0.0004479146
52	0x3d14b735	0.036307532
53	0x3d2ad899	0.04171047
54	0x3da274b1	0.07932413
55	0x3cbd71f2	0.023125622
56	0xbca3c173	-0.019989705
57	0x3dcb6a2b	0.09932359
58	0x3db1e083	0.086854
59	0xbd010055	-0.031494457
60	0xbd55f660	-0.052236915
61	0x3dd91e2f	0.1060146
62	0x3d7bbcf9	0.061459515
63	0xbcfb790f	-0.030697374
64	0x3db7b80b	0.0897065
65	0xbafc06ac	-0.0019228063
66	0xbdf0fe19	-0.11767215
67	0x3d547be2	0.051875956
68	0x3df57804	0.11985782
69	0x3dc0514f	0.093905084
70	0x3c0c39bc	0.008558687
71	0x3dc249ae	0.094867095
72	0x3dde5d04	0.10857585
73	0xbce68c86	-0.028143179
74	0x3e2fbdf8	0.17162311
75	0x3e4e554c	0.20149726
76	0xbd84f969	-0.06492884
77	0x3d0ad9a0	0.03389895
78	0x3e1435ee	0.14473698
79	0xbd3bdd92	-0.045865603
80	0xbe072085	-0.13195999
81	0x3db8e504	0.09028056
82	0x3ce09da7	0.027418924
83	0x3cd690f1	0.02619216
84	0xbd6a54df	-0.057209846
85	0x3d58dca0	0.05294478
86	0x3cfdcd84	0.030981787
87	0x3c1c25ae	0.009530468
88	0xbdd7ad2c	-0.10531077
89	0x3d0b5bfd	0.034023274
90	0xbce73829	-0.028225021
91	0x3de5cb41	0.11220408
92	0xbd3c99fa	-0.04604528
93	0xbca3dd83	-0.020003086
94	0x3dd19d54	0.10235086
95	0x3df85277	0.12125104
96	0x3d8d7554	0.06907144
97	0x3ded551f	0.11588501
98	0x3dc6e2dd	0.097112395
99	0x3db55312	0.08853735
100	0x3dc55d48	0.096369326
101	0xbc88ac12	-0.016683612
102	0xbd29f48e	-0.04149299
103	0x3e05d313	0.130688
104	0xb8ddb11c	-0.000105710904
105	0xbd1c0879	-0.038094018
106	0x3e570c0a	0.21000686
107	0xbcc68f8d	-0.024238372
108	0x3e4610ca	0.19342342
109	0x3d1c433e	0.038150065
110	0xbca3a9a2	-0.019978348
111	0x3cebbc90	0.028776437
112	0xbcd71bab	-0.02625831
113	0x3df087b4	0.11744633
114	0x3d9067b3	0.07051029
115	0x3e0c4312	0.1369746
116	0xbd7dfe98	-0.062010378
117	0xbd6d9ec8	-0.058012754
118	0x3dcec0db	0.10095378
119	0xbd534d5b	-0.051587444
120	0xbd485898	-0.048912615
121	0x3ddfd097	0.10928457
122	0xbcde0e31	-0.027106376
123	0x3d9850be	0.07437275
124	0x3b80cecc	0.003930902
125	0xbd5558e5	-0.05208673
126	0x3e078e53	0.13237886
127	0x3d4ef55e	0.05052697
128	0xbd0a9b04	-0.03383924
129	0x3dbd9f76	0.092589304
130	0x3da16a43	0.07881596
131	0x3debb07d	0.11508272
132	0xbcf800ae	-0.030273762
133	0xbcb38136	-0.021912199
134	0xbd06a077	-0.032867875
135	0x3e02930b	0.12751405
136	0x3b89069f	0.0041816975
137	0x3da3910e	0.07986651
138	0x3d19c3a1	0.037540082
139	0x3d567f09	0.052367244
140	0x3cbc4f5f	0.022987066
141	0x3d00d6cb	0.031454843
142	0x3bff27b8	0.0077867173
143	0x3cd8cc07	0.026464475
144	0xbcfae91b	-0.030628731
145	0xbe164218	-0.1467365
146	0x3d2b3e31	0.041807357
147	0xbd4fd139	-0.05073664
148	0xbc00127b	-0.007816906
149	0x3d0714fc	0.032978997
150	0x3d59c950	0.053170502
151	0x3def8b7d	0.11696527
152	0xbc962703	-0.01832915
153	0xbd07f65e	-0.03319394
154	0xbd3a972f	-0.045554336
155	0x3db33721	0.087507494
156	0xbcbbe805	-0.022937784
157	0xbdd4c791	-0.10389627
158	0xbdeb21be	-0.11481045
159	0x3cd01192	0.025399003
160	0xbdc58ef6	-0.09646408
161	0x3cfcc799	0.030856894
162	0x3d03ab2a	0.032145657
163	0xbce39cb2	-0.02778468
164	0x3d8579ec	0.065173954
165	0x3d9539ba	0.07286401
166	0x3dfe9963	0.124316
167	0x3e1d0264	0.15332943
168	0x3c1946c8	0.0093552545
169	0xbcda54fd	-0.026651854
170	0x3c02ea48	0.007990427
171	0x3b323883	0.0027194328
172	0x3d4459ed	0.047937322
173	0x3c889717	0.016673608
174	0xbda4f35c	-0.080542296
175	0x3d9e662d	0.07734332
176	0x3ce1a44e	0.027544167
177	0x3e278080	0.16357613
178	0x3e1df064	0.15423733
179	0x3e4e328f	0.20136474
180	0x3de7b65a	0.11314078
181	0x3c495958	0.012289368
182	0x3e6cec9e	0.23137137
183	0xbdc716b4	-0.09721127
184	0xbdd5f58c	-0.10447225
185	0x3d349ae5	0.04409303
186	0xbc9aab1e	-0.018880423
187	0xbd874c2b	-0.06606325
188	0x3dcf7006	0.10128789
189	0xbcb7960f	-0.02241042
190	0x3ce84829	0.028354721
191	0x3d82a1ba	0.06378503
192	0x3beea165	0.0072824233
193	0xbd759b7b	-0.05996273
194	0x3dda5492	0.10660662
195	0x3e15125b	0.14557783
196	0xbdc44b1b	-0.09584638
197	0x3e8d6ce1	0.2762213
198	0xbde5c53b	-0.11219259
199	0x3d6edb58	0.05831465
200	0xba61aed3	-0.00086091197
201	0xbbcf5117	-0.0063268053
202	0x3c70be60	0.014693826
203	0x3d2b29f0	0.04178804
204	0x3dc13459	0.09433813
205	0x3ca4a7c7	0.020099534
206	0xbde372f6	-0.111059114
207	0xbd2b14cd	-0.041767884
208	0xbd7623b9	-0.06009266
209	0xbb77afd1	-0.0037794004
210	0x3afbafbb	0.0019202152
211	0xbdb42fb1	-0.08798159
212	0x3ce8deb3	0.028426504
213	0x3d2d1f50	0.04226619
214	0xbdcb308b	-0.09921368
215	0xbd06d63b	-0.03291915
216	0xbd0be216	-0.03415116
217	0xbdf6e61e	-0.1205561
218	0x3dc5b891	0.09654344
219	0xbc059302	-0.008152725
220	0xbc43ac82	-0.011942985
221	0xbde534cb	-0.1119171
222	0xbb94cc6e	-0.0045409715
223	0xbd8ecfb7	-0.06973212
224	0x3ce26742	0.027637128
225	0xbdfb48e8	-0.12269765
226	0x3dc1835e	0.094488844
227	0xbc76f330	-0.015072629
228	0x3d458902	0.048226364
229	0xbd71d201	-0.059038166
230	0xbd8678aa	-0.065659836
231	0x3c0ff822	0.008787187
232	0xbc011aa4	-0.007879887
233	0x3e87a8cb	0.26495966
234	0x3ceda1de	0.029007848
235	0x3de7c409	0.113166876
236	0x3ceda0fa	0.029007424
237	0x3d24a4a4	0.040196076
238	0x3d122604	0.035680786
239	0xbce68427	-0.028139187
240	0x3e0fc82c	0.14041203
241	0xbce77b3b	-0.028257003
242	0xbd8bf675	-0.06834117
243	0x3d07ba89	0.03313688
244	0x3c769b30	0.015051648
245	0xbdd1d7aa	-0.10246213
246	0x3cdfee46	0.027335297
247	0xbd95e6c0	-0.07319403
248	0x3d68755d	0.05675255
249	0x3e673981	0.2258053
250	0xbcdf38f8	-0.027248845
251	0x3e69c0ba	0.22827426
252	0xbc911a0d	-0.017712617
253	0x3df84ea3	0.12124374
254	0x3e381f74	0.17980748
255	0xbcb2a863	-0.021808809

dense_layers.2.weight f4 [10, 256]
0	0xbdecb48a	-0.115578726
1	0x3e38cd3c	0.1804704
2	0xbdf6d542	-0.120523944
3	0x3d8f2933	0.0699028
4	0xbe300199	-0.1718811
5	0xbe7bf157	-0.24603783
6	0x3ab3b898	0.001371163
7	0x3d9a1528	0.075235665
8	0x3d463087	0.048386123
9	0x3c986abc	0.018605582
10	0x3dc12d39	0.09432454
11	0x3df727a3	0.12068107
12	0xbd261188	-0.040544063
13	0x3e54aef7	0.20769869
14	0xbd015dd9	-0.03158364
15	0xbdaee5bf	-0.08539914
16	0xbe3e3017	-0.18573032
17	0x3da2e723	0.07954242
18	0x3d95f5ad	0.073222496
19	0x3d995e1b	0.07488652
20	0xbdbb8729	-0.09156639
21	0xbd4c4b4a	-0.04987649
22	0xbe3980f6	-0.18115601
23	0x3ddfcb3b	0.10927435
24	0x3d8e9875	0.069626726
25	0xbe58dcb8	-0.21177948
26	0xbe9e7642	-0.309496
27	0x3e0245b9	0.1272191
28	0x3c9f8d77	0.019476635
29	0xbdf5513c	-0.11978385
30	0xbe6b4a8d	-0.22977658
31	0xbea5392c	-0.3227018
32	0x3e73c005	0.23803718
33	0x3d2c9cdf	0.04214179
34	0xbe1ee874	-0.15518361
35	0xbeaf5e2b	-0.34251532
36	0x3d780d2a	0.06055943
37	0x3d2e528c	0.04255919
38	0x3c7f7d2a	0.015593806
39	0xbe4e4795	-0.20144494
40	0x3dba6341	0.091009624
41	0xbcdfe966	-0.027332973
42	0x3e140838	0.1445626
43	0xbd868fc4	-0.0657039
44	0x3d21c840	0.039497614
45	0x3d06ecf9	0.03294084
46	0x3ddf54a1	0.109048136
47	0xbe0e1d03	-0.13878255
48	0x3dd96d8d	0.10616598
49	0xbe8a129f	-0.26967332
50	0xbe2c9ff2	-0.1685789
51	0xbe8362df	-0.2566137
52	0xbc591796	-0.013250252
53	0xbe83c4e6	-0.2573616
54	0x3dec9faa	0.11553891
55	0xbdcfd60b	-0.10148247
56	0x3d91ab27	0.07112723
57	0xbdf61abe	-0.120168194
58	0xbea2bf8f	-0.31786773
59	0x3e0299bc	0.12753958
60	0x3ddaddaf	0.10686814
61	0x3e91b9e1	0.28462127
62	0x3d9ff59f	0.078105204
63	0x3cab86e9	0.020938354
64	0x3d17646d	0.036961008
65	0xbe4a0ba2	-0.19731
66	0xbcc47f81	-0.02398658
67	0x3d1d3afa	0.038386323
68	0xbf2797ff	-0.654663
69	0x3d890ccf	0.06691896
70	0xbd1d1b34	-0.03835602
71	0x3e34925e	0.1763396
72	0xbea530b9	-0.32263735
73	0xbcb23f20	-0.021758616
74	0xbc277bee	-0.010222418
75	0x3daa229b	0.08307382
76	0x3dad3398	0.08457106
77	0x3db477ed	0.088119365
78	0x3d799267	0.060930636
79	0xbe6f9e80	-0.23400307
80	0xbda82090	-0.08209336
81	0x3e281ec9	0.16417994
82	0xbe7cc227	-0.24683438
83	0x3be25d9c	0.0069081318
84	0xbe3c7db0	-0.18407321
85	0x3e2f3f29	0.17113937
86	0xbec6f19f	-0.38856217
87	0xbc19f183	-0.00939596
88	0x3d91544b	0.07096156
89	0x3dac4750	0.08412039
90	0xbd20b3a4	-0.03923382
91	0x3db7be0c	0.089717954
92	0xbe813fe7	-0.25244066
93	0xbc8ab4ce	-0.016931918
94	0xbed20748	-0.4102118
95	0x3d8195ae	0.06327377
96	0x3e2038e5	0.15646704
97	0x3d6e0e50	0.05811912
98	0xbca7199d	-0.020397956
99	0xbddaa225	-0.10675458
100	0xbe8e55c9	-0.27799824
101	0xbc81aa5b	-0.015828302
102	0x3def4d06	0.11684613
103	0x3e6c9538	0.23103797
104	0xbd124899	-0.035713766
105	0xbc21f15c	-0.009884205
106	0xbebd6cd3	-0.3699709
107	0xbe8bffa5	-0.2734348
108	0xbe7fca40	-0.24979496
109	0xbe0a1004	-0.13482672
110	0x3db032a9	0.08603413
111	0xbe397b06	-0.18113336
112	0x3dc408e5	0.09572009
113	0xbc10cedc	-0.008838382
114	0xbeab9462	-0.33511645
115	0xbb803d69	-0.0039135707
116	0x3dc0f244	0.094212085
117	0x3d9dcbbb	0.07704874
118	0x3d8ae6d6	0.0678231
119	0x3ccb7581	0.024836304
120	0x3c04a948	0.008097
121	0x3bdcbe60	0.0067365617
122	0x3d8c40ed	0.06848321
123	0xbe2210a1	-0.15826656
124	0xbeb914b9	-0.36148623
125	0x3dac70e4	0.0841997
126	0x3dc04599	0.09388275
127	0xbe17f267	-0.14838563
128	0x3c1f3fd8	0.009719811
129	0xbe473cb4	-0.1945675
130	0x3ddbaaff	0.10725974
131	0x3cf47747	0.029842032
132	0xbcf590bb	-0.02997624
133	0xbda582a9	-0.08081562
134	0xbf05789d	-0.52137166
135	0x3d4b2e21	0.04960454
136	0xbe243391	-0.16035296
137	0x3cf027eb	0.02931591
138	0xbed337bb	-0.41253456
139	0xbe5b4355	-0.21412404
140	0x3df4fa23	0.11961772
141	0x3dfb366d	0.1226624
142	0xbdf8a8ed	-0.12141595
143	0x3df4ebcd	0.11959038
144	0xbdc8c5b7	-0.09803336
145	0x3e0c411f	0.13696717
146	0xbe9949e3	-0.29939184
147	0xbe93176a	-0.287288
148	0x3e032f92	0.12811115
149	0x3e12a3e8	0.14320338
150	0x3d8ec843	0.06971791
151	0xbe2d7ca9	-0.16942085
152	0x3df3ca6b	0.119038425
153	0x3dbd00b5	0.092286505
154	0xbf108fc0	-0.56469345
155	0x3c8b0e2e	0.016974535
156	0xbea06f57	-0.31334946
157	0xba99b9b5	-0.0011728319
158	0xbf323f8a	-0.696282
159	0x3e1b7533	0.15181427
160	0x3e1514e5	0.14558752
161	0x3e314269	0.1731049
162	0xbcb74479	-0.022371517
163	0xbd7fcc6f	-0.062450822
164	0xbe33c3db	-0.17555182
165	0xbd87756a	-0.06614192
166	0x3d53bb18	0.0516921
167	0x3d4c2dee	0.04984849
168	0x3e329387	0.1743909
169	0xbeb6915e	-0.3565778
170	0x3e93f7df	0.28900048
171	0x3cf141c1	0.0294503
172	0xbe622c72	-0.22087267
173	0x3dabbcc7	0.08385616
174	0x3e01bad4	0.12668926
175	0x3dbd5b20	0.09245896
176	0xbd5165a2	-0.051122315
177	0xbe8ca3de	-0.2746877
178	0xbe7ff1ea	-0.24994627
179	0xbdba9dd2	-0.09112133
180	0x3dd5f5a1	0.104472406
181	0x3e43db3e	0.19126603
182	0x3e73d374	0.23811132
183	0x3e1936a9	0.14962257
184	0x3e00010f	0.12500404
185	0x3d0d9f33	0.034575652
186	0x3dddeb6b	0.10835918
187	0x3e0113bc	0.12605184
188	0xbdbbfa67	-0.0917862
189	0x3ddbf55a	0.107401565
190	0x3e27e6c6	0.16396627
191	0xbb91a9e4	-0.0044453014
192	0xbd74bd0f	-0.059750613
193	0x3e079b48	0.13242829
194	0x3c53c4a0	0.012925297
195	0x3d5f4011	0.054504458
196	0x3e190101	0.14941789
197	0xbebf9573	-0.37418708
198	0xbe572e54	-0.21013767
199	0x3db595da	0.088664725
200	0xbd851e2f	-0.06499898
201	0xbdedd772	-0.116133586
202	0x3db87501	0.09006692
203	0xbd38b4de	-0.045094363
204	0x3dd0ddb5	0.10198537
205	0xbd477a0e	-0.048700385
206	0x3e0c1fbd	0.13683982
207	0xbde382f0	-0.11108959
208	0xbbc9bf92	-0.00615687
209	0x3e00731f	0.12543915
210	0xbc35b1ec	-0.011089783
211	0xbe862fa5	-0.26208225
212	0xbee8e839	-0.45489672
213	0x3d40fe51	0.047117535
214	0xbe9057d3	-0.28192005
215	0xbc644e4f	-0.013934686
216	0xbd71fcad	-0.05907886
217	0xbe80253a	-0.25028402
218	0x3df050b2	0.117341414
219	0xbc9f3c12	-0.019437823
220	0xbe29812e	-0.16553184
221	0x3c72c67b	0.014817829
222	0xbde62b26	-0.11238699
223	0xbe863af6	-0.2621686
224	0xbdf66882	-0.12031652
225	0xbdf61e25	-0.12017468
226	0xbe7a4418	-0.24440038
227	0x3d526724	0.051367894
228	0xbaf307b0	-0.001854172
229	0xbee74828	-0.45172238
230	0xbefb9e61	-0.4914427
231	0x3ded429a	0.11584969
232	0x3dd90bca	0.10597952
233	0xbec0fd4f	-0.3769326
234	0x3debdffc	0.11517331
235	0xbccbb79d	-0.024867827
236	0xbd716f0c	-0.058943793
237	0xbe2f8182	-0.17139247
238	0xbd6b04dd	-0.057377685
239	0xbd3a1fc2	-0.045440443
240	0xbe1893c6	-0.14900121
241	0x3e1f888f	0.15579437
242	0xbe1a810e	-0.15088293
243	0xbe052dc1	-0.13005735
244	0x3dd2a5f4	0.10285559
245	0x3e13a8c0	0.14419842
246	0x3e105c53	0.14097719
247	0x3cf81407	0.030282987
248	0xbd72e177	-0.05929705
249	0x3cc7fda5	0.02441294
250	0xbdfd9426	-0.12381773
251	0xbe8b6420	-0.27224827
252	0xbe09fc30	-0.13475108
253	0xbee0d9a1	-0.43916038
254	0x3c274f3e	0.010211764
255	0x3d66e8f0	0.05637449

dense_layers.2.bias f4 [10]
0	0xbe0239ba	-0.12717333
1	0x3d833feb	0.06408676
2	0x3c8846e9	0.016635375
3	0xbdcbd640	-0.09952974
4	0x3d9cdfd9	0.07659883
5	0x3da01f49	0.07818467
6	0xbd50fd44	-0.051022783
7	0x3d0c6e7c	0.034285054
8	0x3a540e3c	0.0008089279
9	0x3b9b1acf	0.0047334204
